audio/models/NCO_emobase2010_2FC_Valence_Audio.pth (torch_old, 861798 bytes, 4 tensors)

reduced_rgb.weight f4 [128, 1582]
0	0xba069a82	-0.0005134718
1	0x3a056eb9	0.00050900463
2	0xbc2dd53d	-0.010609922
3	0x3c5f1641	0.013616146
4	0xbc659021	-0.014011414
5	0xbb184f8a	-0.0023240768
6	0x3b9f1689	0.0048549813
7	0x3a2c44f5	0.00065715547
8	0x3c37cc64	0.011218164
9	0xbb135c5a	-0.0022485466
10	0xbcbb5fca	-0.022872824
11	0x392ffb5f	0.00016782944
12	0xbc9fb09f	-0.0194934
13	0xbb89b3bc	-0.004202334
14	0x3c46d32f	0.012135311
15	0xbae9fcd5	-0.0017851839
16	0xbd199add	-0.037501205
17	0xbc60f67e	-0.013730643
18	0x3baa9ebf	0.0052069123
19	0x3aadabe8	0.0013250085
20	0xbbd032b9	-0.006353703
21	0xb9d31731	-0.00040262335
22	0x3aa2d293	0.0012422375
23	0xbcd1ad17	-0.025595231
24	0x3c96d0be	0.018410083
25	0xbc87428d	-0.016511226
26	0xbbddd564	-0.006769823
27	0xbb422421	-0.0029623585
28	0xbacc67cd	-0.00155949
29	0x3b954ecd	0.004556513
30	0xb9eca49c	-0.0004513607
31	0xbcda8c50	-0.026678234
32	0xbcc147cc	-0.023593806
33	0xbcb06196	-0.021530908
34	0xbb0808c9	-0.002075719
35	0xbb15c34f	-0.0022852009
36	0xba0933fb	-0.0005233881
37	0xbc7b7372	-0.0153473485
38	0xbcd2c263	-0.025727456
39	0xbb32e818	-0.0027298983
40	0xbbb41488	-0.0054956116
41	0xbb54cdc5	-0.003247128
42	0xbae4fa48	-0.0017469609
43	0x3a2e04e6	0.0006638303
44	0xbc583150	-0.013195351
45	0xbb6aae3a	-0.0035809414
46	0x3bd91d43	0.0066258027
47	0x3b2df709	0.002654495
48	0xbb07f9a1	-0.0020748156
49	0x3c25f333	0.010128784
50	0x3c4b6a24	0.012415443
51	0x3bf5c016	0.007499705
52	0xbbe18a10	-0.0068829134
53	0xbc00e6ef	-0.007867559
54	0xbc197543	-0.009366336
55	0x3bc58327	0.0060275975
56	0x3bb3f552	0.005491891
57	0x3b8000a5	0.003906327
58	0xbc4f5ed9	-0.012656891
59	0xb9bdd208	-0.00036205375
60	0x3c272fb1	0.010204242
61	0x3b2e028b	0.0026551809
62	0x3b1a3a6f	0.0023533364
63	0xbb2d10ec	-0.0026407791
64	0x3b6f0328	0.0036470387
65	0xbcfc2614	-0.030779876
66	0x3cd72991	0.026264938
67	0x3bee5204	0.0072729606
68	0x3be61015	0.00702096
69	0x3c0dd2e3	0.008656236
70	0x3bd6e6a7	0.0065582576
71	0x39afbdb4	0.0003351994
72	0x3b8c1fa7	0.004276234
73	0xbcbd832c	-0.023133837
74	0xbcd7d9a4	-0.026348896
75	0xbd218ba9	-0.03943983
76	0xbbfc24d5	-0.0076948204
77	0xbbac7b38	-0.0052637123
78	0x3bea525a	0.0071509304
79	0xbcf3f080	-0.029777765
80	0xbd0eb34a	-0.034838952
81	0xb9d6cece	-0.00040971342
82	0x3b617fca	0.0034408444
83	0xbb436366	-0.0029813885
84	0x3b4d0d89	0.0031288585
85	0xba561338	-0.0008166316
86	0xbcd4b478	-0.02596496
87	0x3bb08fb6	0.0053882254
88	0xbc965ae2	-0.018353883
89	0x39fba883	0.00048000002
90	0x3a67e4ca	0.0008846043
91	0xbb679ead	-0.003534238
92	0xbb9d3dc0	-0.004798621
93	0x3a3d2f49	0.0007216824
94	0xbd1b20cb	-0.03787307
95	0xbcf14d3f	-0.02945578
96	0xbca734ef	-0.020410983
97	0xbba02abc	-0.004887907
98	0xbb9bbf90	-0.0047530606
99	0xbafc49f0	-0.0019248109
100	0xbd356881	-0.044289116
101	0xbc834ee5	-0.01602883
102	0xbb063275	-0.0020476852
103	0x3ba12cb0	0.0049186572
104	0x3b6b962b	0.0035947661
105	0xb9d7caeb	-0.0004115918
106	0x3a922796	0.0011150714
107	0xbba07e2a	-0.0048978524
108	0xbbd5307a	-0.006506023
109	0xbbb973c7	-0.0056595537
110	0xbb5cac69	-0.00336721
111	0xba3ecbc9	-0.0007278291
112	0x3b49d86f	0.003079917
113	0xbb7b2501	-0.0038321617
114	0x3b4ae067	0.0030956508
115	0xbc786b69	-0.015162327
116	0xbc175abf	-0.009237944
117	0x3b8da11e	0.004322185
118	0xbb26c65a	-0.0025447817
119	0xbbc0ef4a	-0.0058879005
120	0xba606b51	-0.0008560913
121	0xbcaba686	-0.020953428
122	0x3c0c6f7a	0.0085715
123	0x3ae70ca2	0.0017627666
124	0xba8bdb35	-0.0010670187
125	0x3a3b8b45	0.00071542367
126	0xb9e8996f	-0.00044364805
127	0xbb191210	-0.0023356713
128	0xbaa6d312	-0.0012727699
129	0xbb97376a	-0.00461476
130	0x3c84c648	0.01620783
131	0xbb63de58	-0.0034769978
132	0x3a3ee23e	0.00072816375
133	0x3bd36f5a	0.006452483
134	0xbbf35aa6	-0.0074265776
135	0x3a1dbe9f	0.00060174795
136	0x3c82897e	0.015934702
137	0x3b8944a7	0.004189092
138	0xbb94d34a	-0.004541789
139	0xbb79bf45	-0.003810839
140	0xbadcb256	-0.0016837816
141	0x3a026f44	0.00049756863
142	0x3c423d10	0.011855379
143	0xbc6de6d9	-0.01452037
144	0x3c269e73	0.010169613
145	0x3a61bd51	0.0008611279
146	0xbb491ff0	-0.0030689202
147	0x3a86f532	0.0010296463
148	0x3b665b1d	0.0035149523
149	0xbcee279d	-0.029071623
150	0xbc16d332	-0.009205626
151	0xbbf248bf	-0.007393926
152	0xbc607cf8	-0.01370167
153	0xbb2c8451	-0.0026323984
154	0x39817ad6	0.00024696317
155	0x3c7584dd	0.01498529
156	0xbb96b118	-0.004598748
157	0xbc81e067	-0.015854074
158	0xbce0008c	-0.02734401
159	0xbd1573b9	-0.036487315
160	0x3bb981d2	0.0056612277
161	0xb79f445a	-1.8986106e-05
162	0x3acee800	0.0015785694
163	0xbbdb8971	-0.006699734
164	0xbcee0c52	-0.02905861
165	0x3b256122	0.0025234898
166	0x3b612669	0.003435517
167	0x3aef82b5	0.0018273207
168	0xbba768eb	-0.0051089427
169	0x3bb8414d	0.005623019
170	0xbb9a580b	-0.0047102026
171	0xbb74fdd8	-0.0037382748
172	0x3cccf2a2	0.02501804
173	0x3b44ac99	0.0030010103
174	0x3b5cadfb	0.0033673036
175	0xbb7be328	-0.0038434956
176	0x3b06c5b2	0.0020564613
177	0xbb423132	-0.0029631373
178	0xbb6932fc	-0.0035583368
179	0xbc18b7ea	-0.009321192
180	0xbb8128c9	-0.0039416295
181	0x3b7d75a1	0.0038674849
182	0xbb1c0570	-0.0023806952
183	0xbb9d2f4e	-0.004796899
184	0x3b83e49f	0.0040250565
185	0xbc2d469c	-0.010575917
186	0xbaa5ba81	-0.0012644083
187	0x3a41c679	0.00073919405
188	0x3a333826	0.0006836675
189	0xb9d4f73c	-0.00040619995
190	0x3ac944ae	0.0015355551
191	0x3c296fc3	0.0103415875
192	0xbbda2c51	-0.006658115
193	0x3d35188a	0.044212855
194	0xbb0798d7	-0.0020690465
195	0x3b9e1641	0.00482443
196	0x3c14f248	0.0090909675
197	0x3b42063b	0.0029605764
198	0x3b9a16b4	0.0047024135
199	0x3cdca05e	0.026931938
200	0x3c826adf	0.0159201
201	0x3b0d05fd	0.0021518462
202	0x3b451ab8	0.003007574
203	0x3b18fcdf	0.0023344082
204	0x3b9ab37d	0.0047211037
205	0x3d0a77a8	0.03380552
206	0x3b2f6f3f	0.0026769189
207	0x3afeaaa8	0.0019429522
208	0x3b58cff9	0.0033082946
209	0x3a4c7f23	0.0007800927
210	0x3b433240	0.002978459
211	0x3a8c7013	0.0010714553
212	0xbd095c52	-0.03353531
213	0xba31b289	-0.0006778618
214	0x3c3e171a	0.0116021875
215	0xbaac6547	-0.0013152742
216	0xbb3172dc	-0.0027076518
217	0xba28546d	-0.0006421272
218	0x3b1a89ef	0.002358075
219	0xba221ed7	-0.0006184405
220	0xbd2edfef	-0.04269403
221	0xbcd025f2	-0.025408719
222	0xbbf946db	-0.0076073236
223	0xbbd74bfb	-0.006570337
224	0xb9f4d17a	-0.0004669538
225	0xbb33016d	-0.0027314082
226	0xbd3c8493	-0.04602487
227	0x3bc6819a	0.00605793
228	0xbbb1d749	-0.0054272753
229	0x3bb60db7	0.005555834
230	0x3b2fefac	0.0026845736
231	0xba29d728	-0.0006478899
232	0x3b400a21	0.0029302912
233	0xbc4d7753	-0.012540656
234	0x3cdbfcd3	0.026853954
235	0x3d25a5c8	0.040441304
236	0xbc01ff9b	-0.007934476
237	0xbb7b1e9c	-0.0038317805
238	0xbc1ba5f0	-0.009500012
239	0x3beb166b	0.0071743033
240	0xba26947b	-0.0006354523
241	0xbce622c8	-0.028092757
242	0xbbfe441f	-0.0077595855
243	0x3c0139dc	0.00788733
244	0x3b21cf17	0.0024690086
245	0x3aadafd1	0.001325125
246	0xbabf0f64	-0.001457673
247	0xbcfb31e7	-0.030663444
248	0x3cc85e48	0.02445902
249	0xbc50cea6	-0.012744581
250	0x3b2f1041	0.002671257
251	0xbbbe6323	-0.005810158
252	0xba52545f	-0.00080234365
253	0x3b590365	0.0033113596
254	0x3ca931b3	0.020653581
255	0x3c54d20d	0.012989533

fc1.weight f4 [64, 128]
0	0xbdbda542	-0.09260036
1	0xbdec7d3f	-0.11547326
2	0xbd810dbb	-0.06301447
3	0xbddfa103	-0.109193824
4	0x3c8e7d62	0.017393772
5	0xbce00992	-0.027348313
6	0xbd8e98c4	-0.069627315
7	0xbd516890	-0.05112511
8	0x3d29bd12	0.041440077
9	0xbca2a672	-0.019854758
10	0xbb9460be	-0.004528134
11	0x3d549844	0.051903024
12	0x3da9c21c	0.082889766
13	0x3da85ffc	0.082214326
14	0xbc38a279	-0.011269205
15	0xbd3138f6	-0.043267213
16	0xbd4e7983	-0.05040885
17	0xbd9f5f11	-0.07781804
18	0x3d3b694b	0.045754712
19	0xbc2f2932	-0.010690974
20	0x3ce52d79	0.027975785
21	0xbd51d7c5	-0.051231164
22	0xbc394d68	-0.011309959
23	0x3d3252d7	0.043536033
24	0xbda393c1	-0.07987166
25	0xbd6e001b	-0.05810557
26	0x3d402a54	0.046915367
27	0x3b8e0c7f	0.0043349857
28	0x3c6d0244	0.014465872
29	0xbdf68d6b	-0.12038692
30	0x3d5b4a61	0.05353773
31	0x3c927a83	0.017880684
32	0x3b04ca17	0.0020262056
33	0x3d130f64	0.03590335
34	0x3d5ce04c	0.053924844
35	0x3d1918cf	0.037377175
36	0xbb187f5d	-0.0023269274
37	0x3c6e820e	0.014557375
38	0x3d46087d	0.04834794
39	0x3cac0423	0.020998066
40	0x3d875ceb	0.066095196
41	0x3c9e0286	0.019288313
42	0xbda774b1	-0.08176554
43	0xbd69862c	-0.057012722
44	0xbca81328	-0.020516947
45	0x3ca076e1	0.019587936
46	0xbd5b624c	-0.05356054
47	0xbced4323	-0.028962677
48	0xbd19d4a4	-0.037556306
49	0xba3a30e6	-0.00071026233
50	0x3cc90902	0.024540428
51	0x3d58d48a	0.052937068
52	0xbc05085a	-0.008119667
53	0xbda7d418	-0.081947505
54	0xbc1b4c4f	-0.009478643
55	0x3d465c2d	0.04842775
56	0x3cf756a0	0.030192673
57	0x3d459b50	0.04824382
58	0xbd77e93e	-0.06052517
59	0xbd56f8fb	-0.05248354
60	0xbbdac926	-0.006676811
61	0xbcb7df18	-0.022445247
62	0xbb41f40b	-0.0029594924
63	0x3ce4172b	0.027843079
64	0x3d5d0b3a	0.053965785
65	0x3ca8adad	0.020590628
66	0xbcea1857	-0.02857606
67	0x3d510c1d	0.051036943
68	0x3d81abd3	0.06331601
69	0x3cf2e12e	0.02964839
70	0xbd023ad1	-0.031794373
71	0xbcad6529	-0.021166401
72	0x3ce91864	0.028454013
73	0x3d06a3ec	0.03287117
74	0xbd1e423a	-0.038637377
75	0x3d91573d	0.070967175
76	0xbabaeb20	-0.0014260747
77	0xbc578fb3	-0.013156819
78	0x3dd88676	0.105725214
79	0xbcaf7955	-0.02142016
80	0xbc9c4153	-0.019074118
81	0xba03ba2d	-0.0005024996
82	0x3ca01e35	0.019545654
83	0xbd25c39f	-0.040469762
84	0x3b8bd04f	0.0042667757
85	0x3be9a5a6	0.0071303425
86	0xbd8303d9	-0.06397218
87	0xbd35a064	-0.044342414
88	0x3cebdac5	0.02879084
89	0xbd8d2fc2	-0.06893875
90	0xbce98101	-0.028503897
91	0x3d5c9f20	0.05386269
92	0xbccf55a2	-0.025309388
93	0xbcf1f7e9	-0.029537158
94	0xbb8723f2	-0.004124158
95	0xbc2e1855	-0.010625918
96	0x3c41ba82	0.011824252
97	0x3c362781	0.011117817
98	0x3d02bc77	0.031918015
99	0x3c4c0f6a	0.012454847
100	0xbcae3f02	-0.021270279
101	0x3ce748cc	0.028232954
102	0xbc90f677	-0.017695649
103	0xbc80b657	-0.015711946
104	0xbd1793b5	-0.0370061
105	0xbdd23311	-0.102636464
106	0xbce14862	-0.027500335
107	0xbc51bab7	-0.012800864
108	0xbd7c45f9	-0.06159017
109	0xb9b32f9a	-0.00034177006
110	0x3d2ca037	0.04214498
111	0xbbb86210	-0.0056269243
112	0x3ba91a5e	0.005160614
113	0xbd106fb7	-0.03526279
114	0x3d8fc3b5	0.0701975
115	0x3d12ba9e	0.035822503
116	0x3a718a83	0.000921406
117	0xbcb15550	-0.021647125
118	0x3becc1c7	0.0072252485
119	0x3b16b172	0.002299395
120	0xbd52bada	-0.051447727
121	0x3d19e93f	0.037575956
122	0x3d238d0f	0.039929446
123	0xbbd5d722	-0.00652589
124	0xbd8a3670	-0.067486644
125	0x3c87e605	0.016589174
126	0xbccb587e	-0.02482247
127	0xbd2390ea	-0.039933123
128	0x3d940fc2	0.07229568
129	0x3dd5b385	0.10434631
130	0x3cd5a214	0.026078261
131	0x3d9a6301	0.07538415
132	0xbd4eb91a	-0.050469495
133	0x3c930867	0.017948342
134	0x3d5260a0	0.05136168
135	0x3d4fa390	0.050693095
136	0xbc96aff5	-0.01839445
137	0x3cb24284	0.021760233
138	0x39c539d5	0.00037617856
139	0xbd3928c0	-0.045204878
140	0xbd8a0264	-0.06738737
141	0xbd9ef0e3	-0.07760789
142	0x38ced278	9.862048e-05
143	0x3d1a7b1f	0.037715074
144	0x3d335a7b	0.04378746
145	0x3d6d93bc	0.05800222
146	0xbd0a32a7	-0.033739712
147	0x3cb4f9b4	0.022091724
148	0xbc9f2c85	-0.019430408
149	0x3d12074f	0.0356515
150	0x3ce63059	0.028099226
151	0xbd069268	-0.032854468
152	0x3d7f411b	0.06231795
153	0x3d594160	0.053040862
154	0xbd47e3b0	-0.048801124
155	0xbb484aac	-0.0030562086
156	0xbcb9dced	-0.022688353
157	0x3db9a66c	0.090649456
158	0xbcce2907	-0.025166048
159	0xbcd855cb	-0.026408097
160	0xbc136ef9	-0.008998626
161	0xbd44fb34	-0.04809113
162	0xbd717093	-0.05894525
163	0xbd02baa6	-0.031916283
164	0x3c20367e	0.009778617
165	0xbc154b37	-0.009112171
166	0xbd5a168e	-0.053244166
167	0xbca3f3b4	-0.020013668
168	0xbd751b48	-0.05984047
169	0xbc391f34	-0.011298943
170	0x3d70202f	0.058624443
171	0x3d4bb9d7	0.049737778
172	0x3b74b1e1	0.003733747
173	0xbcdef5ad	-0.027216757
174	0x3d1a559d	0.037679303
175	0x3c8794a5	0.016550371
176	0x3d3bab59	0.045817707
177	0x3ac42837	0.0014965598
178	0xbceb7d7d	-0.02874636
179	0xbd0641f3	-0.032777738
180	0xbbfcceda	-0.0077150883
181	0x3d9adc1c	0.07561514
182	0x3c93c356	0.01803748
183	0xbd85633e	-0.065130696
184	0xbcc678e5	-0.024227569
185	0xbc8d96bb	-0.017283788
186	0x3d5b034d	0.053469945
187	0x3d1e714d	0.03868227
188	0x3c8182bd	0.015809411
189	0x3cee5b0c	0.029096149
190	0xbbddd4f3	-0.0067697703
191	0xbd189b7a	-0.03725765
192	0xbd034a1d	-0.0320531
193	0xbb7d5658	-0.0038656201
194	0x3d39394b	0.045220654
195	0xbd512a10	-0.051065505
196	0xbd615e7f	-0.05502176
197	0xbc9590e3	-0.018257564
198	0x3cebe0b2	0.028793667
199	0x3c7a0131	0.015259073
200	0xbcc5337f	-0.024072407
201	0xbcb4d7f7	-0.022075636
202	0x3d150a0f	0.036386546
203	0xbd874917	-0.06605738
204	0xbb49c0d6	-0.0030785105
205	0xbbb99909	-0.005663995
206	0xbda34200	-0.07971573
207	0x3bf718b2	0.0075407857
208	0x3d0ef1e5	0.034898657
209	0xbc55c5bc	-0.013047632
210	0xbc0d1fd6	-0.008613547
211	0x3cf94129	0.030426579
212	0x3bd51f37	0.0065039652
213	0xbd1d963d	-0.038473357
214	0x3d8f3c6f	0.06993949
215	0x3d348df6	0.044080697
216	0xbc66b717	-0.014081738
217	0x3d23fa26	0.040033482
218	0x3cc5130f	0.02405694
219	0xbcfbb743	-0.030727034
220	0x3a828e60	0.0009960644
221	0x3cf76916	0.030201476
222	0x3c2ce6c5	0.010553067
223	0x3c88488c	0.016636156
224	0xbcf2ec5b	-0.029653719
225	0xbb98bb62	-0.0046610096
226	0xbd215cdc	-0.0393952
227	0xbc799b51	-0.015234784
228	0x3ab2a5fd	0.0013629791
229	0xbc6c24ad	-0.014413041
230	0x3beb1790	0.0071744397
231	0x3cd1a3ba	0.025590766
232	0x3ccfcbcc	0.025365733
233	0x3da21178	0.07913488
234	0x3c4b11b5	0.012394358
235	0x3b924286	0.0044634966
236	0x3d14efdd	0.036361564
237	0x3b21a109	0.0024662635
238	0xbd7f7d55	-0.062375385
239	0x3b42c6b6	0.0029720492
240	0xbca3efe1	-0.020011844
241	0x3d05f8c1	0.032707933
242	0xbd49a90b	-0.049233478
243	0xbcd80280	-0.02636838
244	0xbc4d0631	-0.012513683
245	0x3d0dfd89	0.034665618
246	0xbce4ce5e	-0.027930435
247	0xba977153	-0.0011554159
248	0x3cb0e09e	0.02159148
249	0xbcbee8ee	-0.023304429
250	0xbceef943	-0.029171592
251	0x3b41bd23	0.0029562197
252	0x3d79b304	0.06096174
253	0xbc41837a	-0.011811132
254	0x3bd60eaf	0.006532512
255	0x3d1af736	0.037833415

fc2.weight f4 [64, 64]
0	0x3c94e258	0.018174335
1	0xbd1a15e9	-0.03761855
2	0x3d24a8dc	0.0402001
3	0x39f2f809	0.00046342638
4	0xbcde873b	-0.027164092
5	0xbcd5030e	-0.026002433
6	0x3c16530a	0.0091750715
7	0xbd24cd6c	-0.040234968
8	0xbaa62093	-0.0012674503
9	0x3cfbab2f	0.030721275
10	0x3d4ea243	0.050447714
11	0xbd59d3ab	-0.053180378
12	0xbc0248d9	-0.007951939
13	0xbd80b85a	-0.06285162
14	0x3b1a3a73	0.0023533374
15	0x3d12d1e3	0.035844695
16	0x3d4f5b05	0.050623912
17	0xbcd98dc5	-0.026556859
18	0xb8b4e73d	-8.62614e-05
19	0x3d336726	0.043799542
20	0x3c17cd71	0.00926529
21	0x3d71aa49	0.059000287
22	0x3d899ec0	0.06719732
23	0x3cdf15e2	0.027232114
24	0x3b8334eb	0.004004111
25	0x3c70b1d7	0.014690838
26	0x3cc63940	0.02419722
27	0x3c83c9f5	0.016087512
28	0x3c1cf1fe	0.00957918
29	0x3c4297f6	0.011877051
30	0xbcb4011e	-0.021973189
31	0xb92314ec	-0.00015552685
32	0x3d6cb629	0.05779091
33	0x3b0b7914	0.0021281885
34	0x3c86eac4	0.016469367
35	0xbd3e931a	-0.046527006
36	0x3d451070	0.04811138
37	0x3d0b88a3	0.034065854
38	0x3c9008d6	0.017582338
39	0x3d0aa54d	0.03384905
40	0x3ccebb84	0.025235899
41	0xbd6e7fb8	-0.05822727
42	0x3d55c2c7	0.052187707
43	0xbcea7b84	-0.02862335
44	0xbb26682f	-0.0025391688
45	0x3cc76086	0.024338018
46	0xbdc1f63e	-0.09470795
47	0x3ce86c0a	0.02837183
48	0x3c533047	0.012889928
49	0xbd20ee32	-0.03928966
50	0xbc17d469	-0.009266951
51	0x38678ef2	5.520782e-05
52	0xbbc5cd4f	-0.0060364376
53	0x3bd301ba	0.006439415
54	0x3c631bd8	0.013861619
55	0xbce26060	-0.027633846
56	0xbd0308ee	-0.031990938
57	0xbd1267a7	-0.03574338
58	0xbce73fdb	-0.02822869
59	0xbd1a4826	-0.037666462
60	0xbd187332	-0.037219234
61	0xbcf68c4f	-0.030096201
62	0x3cf85b79	0.030317055
63	0xbd067e9b	-0.032835584
64	0xbc669cb5	-0.014075448
65	0xbb266bfc	-0.0025393954
66	0x3de5caad	0.11220298
67	0xbd278db2	-0.040906616
68	0xbd80ada4	-0.06283119
69	0xbcc8d49a	-0.024515439
70	0x3d4ad972	0.04952378
71	0xbcfdfd4a	-0.031004567
72	0x3ca0b6f3	0.019618487
73	0x3d3f35e8	0.04668227
74	0xbcc9bfdc	-0.024627618
75	0xbde1e37a	-0.11029716
76	0x3d65be9c	0.056089982
77	0xbdf1affb	-0.11801144
78	0x3d4a5110	0.049393713
79	0xbccd4cdb	-0.025061062
80	0x3c8b157f	0.016978024
81	0xbd437df9	-0.04772756
82	0xbcb4d859	-0.022075819
83	0x3d3ad747	0.04561546
84	0xbd4116e2	-0.047140963
85	0x3d485cff	0.048916813
86	0x3dc7ac20	0.09749627
87	0x3d227541	0.039662603
88	0xbd5f1e25	-0.054472107
89	0x3d58c49e	0.052921884
90	0x3d66dcb7	0.056362834
91	0x3d7738ba	0.060356833
92	0x3d08ee57	0.033430424
93	0x3c4e251b	0.012582089
94	0xbc011def	-0.007880672
95	0xbd4ca068	-0.049957663
96	0x3de0d591	0.109782346
97	0x3da639fa	0.08116527
98	0x3d4dc4d8	0.050236553
99	0xbd969ace	-0.073537454
100	0x3d833bd7	0.06407898
101	0xbb600d98	-0.003418779
102	0xbcd593c8	-0.026071444
103	0x3ccd0df8	0.025031075
104	0x3d0b5b6f	0.034022745
105	0xbe1a8510	-0.15089822
106	0x3e0d357b	0.13789932
107	0x3b929bfe	0.004474162
108	0x3cb741f6	0.02237032
109	0xbbccf100	-0.0062543154
110	0xbe19edc2	-0.15032104
111	0x3c3cc3d9	0.011521303
112	0x3d266a55	0.04062875
113	0xbde588fb	-0.112077676
114	0xbc46cba6	-0.0121335145
115	0xbbcc59d1	-0.006236293
116	0x3c854ab3	0.01627097
117	0x3d5c67d4	0.053809956
118	0x3dc2fe15	0.095211186
119	0xbce79eed	-0.028274024
120	0xbd3c0ad1	-0.045908753
121	0xbc7f7291	-0.01559128
122	0xbd85b033	-0.06527748
123	0x39bac8b2	0.00035626214
124	0xbc7daed2	-0.015483575
125	0xbe14ba13	-0.14524107
126	0x3d8130e7	0.063081555
127	0xbd171bc5	-0.036891717
128	0xbd15226c	-0.03640978
129	0x3cbd290e	0.023090865
130	0xbcbded85	-0.023184547
131	0x3d2b39ca	0.04180316
132	0x3d9ecafb	0.07753559
133	0xbc2dc44a	-0.010605881
134	0xbd5321d8	-0.051545948
135	0x3c23759d	0.009976772
136	0xbcd44aeb	-0.02591463
137	0xbd18102e	-0.037124805
138	0x3c86014b	0.016358038
139	0x3dc2feef	0.09521281
140	0xbd8b63c9	-0.06806142
141	0x3d9c1fcf	0.076232545
142	0xbd07ec47	-0.033184316
143	0x3d204038	0.039123744
144	0x3ca9cc9d	0.02072745
145	0x3c3fadd2	0.011699157
146	0x3c2a3341	0.010388196
147	0xbd79fb1d	-0.061030496
148	0x3d0d6f4a	0.03452996
149	0x3c8b8e0b	0.017035505
150	0xbd2c84c6	-0.04211881
151	0xbcfc45f5	-0.030795077
152	0x3d4eb114	0.050461844
153	0x3c0c3ed4	0.008559901
154	0x3cb41b77	0.021985753
155	0xbd0e7ecd	-0.034788895
156	0xbd560e75	-0.05225988
157	0x3c8399ff	0.016064642
158	0xbca5f75b	-0.02025955
159	0x3cabcd92	0.020972047
160	0xbd479ab3	-0.048731517
161	0xbd9b7ecd	-0.07592545
162	0xbcd8aa2c	-0.026448332
163	0x3d4e040b	0.050296824
164	0x3ad31267	0.0016103507
165	0xbc541aef	-0.012945875
166	0x3d6f4851	0.058418576
167	0x3c20488b	0.009782921
168	0xbcb84e79	-0.022498356
169	0x3e1228a9	0.14273323
170	0xbdab89cd	-0.08375893
171	0xbd845372	-0.064612284
172	0x3c72622f	0.014793917
173	0x3d563780	0.052299023
174	0x3dfa2fdd	0.122161604
175	0xbd03d229	-0.032182846
176	0xbd64b5c1	-0.055837397
177	0x3da45900	0.08024788
178	0xbc610c13	-0.013735789
179	0x3cb4e8b6	0.022083621
180	0xbd15fecd	-0.03661995
181	0xba3ae15e	-0.0007128919
182	0xbd3fb8de	-0.046807162
183	0x3d73c543	0.059514295
184	0x3d6ac828	0.05731979
185	0xbd5144c5	-0.051090974
186	0x3d882d4e	0.06649266
187	0xbc8e9046	-0.01740278
188	0xbd8141fe	-0.06311415
189	0x3d44079f	0.04785883
190	0xbcdcbe76	-0.026946288
191	0x3d1b628a	0.03793577
192	0x3d748c0b	0.059703868
193	0xbbea76b7	-0.007155265
194	0xbddd42e0	-0.10803771
195	0xbd00cb85	-0.03144409
196	0xbd91f57f	-0.07126903
197	0x3dc1fee1	0.094724424
198	0x3d5970d3	0.053086113
199	0x3d63377c	0.055472836
200	0x3d2b0f83	0.04176284
201	0xbbb1d9d3	-0.005427578
202	0xbd97b56e	-0.07407652
203	0xbd046bdd	-0.03232943
204	0x3de00b87	0.10939699
205	0x3ca06fa2	0.01958448
206	0x3cedc55a	0.029024769
207	0xbdcd0d55	-0.100123085
208	0xbdf46a58	-0.11934346
209	0x3d605304	0.05476667
210	0xbc21b714	-0.009870309
211	0x3cd51f56	0.026015919
212	0xbd17151c	-0.036885366
213	0xbe14552c	-0.14485615
214	0xbd97b827	-0.07408171
215	0xbb5e9341	-0.0033962282
216	0xbd8933d3	-0.06699338
217	0xbd87848e	-0.0661708
218	0xbe00c2f6	-0.12574372
219	0xbbb0250e	-0.005375511
220	0x3d7fdd56	0.06246694
221	0xbd73a436	-0.059482776
222	0x3d86f78b	0.06590184
223	0xbc09776e	-0.008390291
224	0xbd99f8ab	-0.07518133
225	0x3dae2f2d	0.08505092
226	0x3a2b0850	0.0006524371
227	0x3cbf9607	0.023386968
228	0xbddf7895	-0.10911671
229	0xbc97d007	-0.018531812
230	0xbddf2482	-0.10895635
231	0xbda31dcc	-0.07964668
232	0xbb82c0cd	-0.003990269
233	0xbda2a590	-0.07941735
234	0xbcbcd96c	-0.023052894
235	0x3e21b112	0.15790203
236	0xbcf3fd3a	-0.029783834
237	0xbdf3b70d	-0.119001485
238	0x3aa36f3b	0.0012469062
239	0x3cd728ab	0.02626451
240	0x3d65ed21	0.056134347
241	0xbcb62310	-0.022233516
242	0x3d5eaf54	0.054366425
243	0xbd62e7b2	-0.055396743
244	0x3d86970f	0.06571781
245	0xbd691513	-0.056904864
246	0xbc2d98b4	-0.010595489
247	0xbd82633d	-0.063665845
248	0xbcf73bf1	-0.03017995
249	0x3e214613	0.15749387
250	0xbd4970c6	-0.049179815
251	0x3d95463e	0.07288788
252	0x3e3b00e0	0.18262053
253	0x3da24cfd	0.079248406
254	0xbd4290ba	-0.047501303
255	0x3c0217cf	0.007940247

class_dim.weight f4 [7, 64]
0	0xbdea36a4	-0.11436203
1	0x3d4778cc	0.048699185
2	0xbdd61958	-0.10454053
3	0x3e9e04fb	0.30863175
4	0xbdcf6e17	-0.1012842
5	0x3cf6fdae	0.03015026
6	0x3b1d1262	0.0023967256
7	0xbcccacb6	-0.024984699
8	0xbd8c880d	-0.06861887
9	0xbc935a8d	-0.017987514
10	0x3d49e508	0.049290687
11	0x3df10910	0.11769307
12	0xbe402c01	-0.18766786
13	0xbe82cf5a	-0.25548822
14	0xbc91c083	-0.017791992
15	0xbe8c7303	-0.27431497
16	0xbda70fac	-0.08157286
17	0x3d874f43	0.06606915
18	0xbd17934b	-0.037005704
19	0x3daff0a5	0.08590821
20	0x3e036b73	0.12833957
21	0xbea24eea	-0.31700832
22	0xbdbf71d0	-0.0934788
23	0x3d83f4ce	0.06443177
24	0xbcdb0098	-0.026733682
25	0xbe85706e	-0.2606234
26	0xbd7a28aa	-0.061073937
27	0xbdf4ae65	-0.119473256
28	0xbe2dbebe	-0.16967294
29	0x3e45aac7	0.19303428
30	0xbe30b89e	-0.17257926
31	0x3e57dd74	0.21080571
32	0x3defb65d	0.11704705
33	0x3d2160d9	0.039399
34	0x3ea3abc4	0.31966984
35	0x3e7ebbc7	0.24876319
36	0xbd19d59f	-0.03755724
37	0x3e4e8210	0.20166802
38	0xbda327f4	-0.07966605
39	0xbeee6f2a	-0.46569186
40	0x3e2b5b89	0.16734137
41	0xbe29b73d	-0.16573806
42	0x3e38ad9b	0.18034975
43	0x3d706d9d	0.058698285
44	0xbe451c0c	-0.1924898
45	0xbe269f3d	-0.16271682
46	0x3e28bce5	0.16478308
47	0x3c721ee3	0.014777872
48	0xbdd2dc19	-0.102958865
49	0x3df7dbb6	0.121024534
50	0xbc1bb453	-0.009503442
51	0xbe6ff540	-0.23433399
52	0xbe831bb1	-0.25607064
53	0xbdf24916	-0.11830346
54	0xbe73c175	-0.23804267
55	0x3e847879	0.25873163
56	0xbd9040b8	-0.07043594
57	0x3de2ea8b	0.11079892
58	0x3d21367e	0.03935861
59	0xbcdd1cd0	-0.026991278
60	0xbc16da68	-0.009207346
61	0xbebe6771	-0.37188295
62	0x3e679a28	0.226174
63	0x3e01eeea	0.12688795
64	0x3c9fd1e5	0.019509265
65	0x3e074f65	0.1321388
66	0xbd46510d	-0.04841714
67	0xbd2f6ea3	-0.04283012
68	0x3d85735a	0.06516142
69	0x3db72eb7	0.08944457
70	0xbd5cb0b9	-0.053879473
71	0x3c5dca52	0.013537006
72	0xbc84d9b7	-0.016217096
73	0xbd9f37de	-0.07774328
74	0xbd06fde5	-0.032956976
75	0xbd60d82b	-0.054893654
76	0xbd49e478	-0.04929015
77	0xbdab4c0b	-0.083641134
78	0x3b964614	0.0045859907
79	0xbde9936c	-0.114050716
80	0xbc137fc6	-0.0090026315
81	0x3d9bb47c	0.07602784
82	0x3da25cbe	0.079278454
83	0xbda778d4	-0.08177343
84	0x3d96d376	0.07364552
85	0xbe2cb3e9	-0.16865505
86	0x3c59f375	0.013302674
87	0xbc8dfb4b	-0.01733174
88	0xbdea96ec	-0.11454567
89	0xbe0c2bc2	-0.13688567
90	0xbd689c50	-0.056789696
91	0xbd9a038f	-0.0752021
92	0xbdde75cb	-0.10862311
93	0x3dd50fb9	0.104033895
94	0x3d198492	0.037479945
95	0x3cd41a96	0.025891583
96	0xbdbb880c	-0.09156808
97	0x3c86e937	0.016468627
98	0x3c13ff55	0.009033044
99	0x3d880d71	0.06643189
100	0xbd991d73	-0.0747632
101	0x3e25c501	0.16188432
102	0xbd05e787	-0.032691505
103	0xbddf6c82	-0.10909368
104	0x3dc598b5	0.09648267
105	0xbda21048	-0.07913262
106	0x3d516165	0.051118273
107	0xbced5fcb	-0.028976342
108	0xbd007fbe	-0.031371824
109	0xbc201038	-0.009769492
110	0x3dc9ddf8	0.0985679
111	0x3d144818	0.036201566
112	0xbe1782b3	-0.14795952
113	0x3d986469	0.07441027
114	0x3d9e56e5	0.077314176
115	0xbd3f594f	-0.04671603
116	0xbdff9009	-0.124786444
117	0x3d4e1c2d	0.05031984
118	0xbd865fe5	-0.06561259
119	0x3c993e06	0.018706333
120	0xbc569112	-0.013096111
121	0x3d4404ea	0.04785625
122	0xbe20c146	-0.15698728
123	0xbe149488	-0.14509785
124	0xbd414c54	-0.047191933
125	0xbe564f51	-0.20928694
126	0x3da01ac9	0.07817609
127	0x3d6492cc	0.05580406
128	0xbc116842	-0.008874955
129	0x3c9227c1	0.017841222
130	0x3da460cd	0.08026276
131	0xbe332ce0	-0.17497587
132	0x3c6c2fea	0.0144157205
133	0x3dcac45a	0.09900732
134	0xbdb1a583	-0.08674147
135	0x3cc00cf8	0.023443684
136	0xbca0ea24	-0.019642897
137	0xbddf60ce	-0.10907136
138	0xbce9c378	-0.02853559
139	0xbe2521f4	-0.16126233
140	0xbda093ff	-0.07840728
141	0x3cf81058	0.03028123
142	0xbbde1973	-0.006777936
143	0xbdf2ddbf	-0.11858701
144	0x3c9d776e	0.019221988
145	0x3d832dce	0.06405221
146	0x3d7528c7	0.05985334
147	0xbdcd64ef	-0.10029017
148	0x3dc8b407	0.097999625
149	0xbe0fa438	-0.14027488
150	0x3d2757a6	0.040855072
151	0xbd53d661	-0.05171812
152	0xbe40eb3b	-0.18839733
153	0xbe6a3433	-0.22871475
154	0xbd1dba18	-0.03850755
155	0xbdfe89ab	-0.12428602
156	0xbce17480	-0.027521372
157	0x3e20559c	0.15657657
158	0xbbe212de	-0.006899222
159	0xbd89650e	-0.06708728
160	0xbe249409	-0.16072096
161	0x3d6324a5	0.05545487
162	0xbd20a1f2	-0.039216943
163	0x3d143bcb	0.036189836
164	0xbdc0780e	-0.093978986
165	0x3e2d06a1	0.1689706
166	0xbc842950	-0.01613298
167	0xbd531e28	-0.05154243
168	0x3e095647	0.13411818
169	0xba30ee8f	-0.0006749415
170	0x3c3dd3d4	0.011586148
171	0xbd94326c	-0.0723618
172	0xbdfab6f9	-0.122419305
173	0xbdb5711f	-0.08859467
174	0x3da38ef6	0.07986252
175	0x3d052de4	0.032514468
176	0xbdd9b6b9	-0.10630555
177	0x3c135f00	0.008994818
178	0x3d884e40	0.0665555
179	0xbd88b441	-0.06675006
180	0xbe49d905	-0.19711693
181	0x3e337d20	0.175282
182	0x3d2b1d7b	0.04177616
183	0x3c80fba8	0.015744999
184	0x3c42cd44	0.011889759
185	0x3c4cfe90	0.012511864
186	0xbe7ca875	-0.24673636
187	0xbe888752	-0.2666574
188	0x3b931615	0.0044887164
189	0xbdf42053	-0.11920228
190	0xbb901e59	-0.004398149
191	0x3b83d8e6	0.004023659
192	0xbd6fd2e2	-0.058550723
193	0xbe8c8e27	-0.27452204
194	0x3e9cf81e	0.30658048
195	0xbe99f707	-0.3007128
196	0xbde027ad	-0.109450676
197	0x3c6de04d	0.0145188095
198	0xbd9efe67	-0.07763367
199	0x3c987a68	0.018613055
200	0xbba41050	-0.0050068274
201	0xbd2bff9b	-0.04199181
202	0x3c49c674	0.012315381
203	0xbe592cbb	-0.2120847
204	0xbd59e9c4	-0.053201452
205	0x3e91fbc5	0.28512397
206	0xbcf4652e	-0.029833402
207	0x3d35651a	0.04428587
208	0x3d86008f	0.06543075
209	0xbd660a21	-0.056162003
210	0xbd2f6f6b	-0.042830866
211	0xbc7cfe54	-0.015441496
212	0x3ccac64d	0.02475276
213	0x3dfd81b9	0.12378258
214	0x3d64bd06	0.05584433
215	0xbd8be05b	-0.06829902
216	0xbe1a198b	-0.15048806
217	0xbe191d89	-0.14952673
218	0x3d63b6b4	0.05559416
219	0xbdd18c24	-0.10231808
220	0x3e5be0b5	0.21472438
221	0x3da3d491	0.07999528
222	0xbdaa3245	-0.083103694
223	0xbe5a24b5	-0.21303065
224	0xbe0e06f4	-0.1386984
225	0x3daff18c	0.08590993
226	0xbdf4d42d	-0.11954532
227	0xbdaa81ba	-0.08325525
228	0xbc64730d	-0.013943446
229	0xbcad8258	-0.021180317
230	0x3cb40489	0.021974819
231	0x3e3f533d	0.18684097
232	0x3d7fd064	0.062454596
233	0x3e57b093	0.21063451
234	0xbdd075ca	-0.101787165
235	0xbdcea403	-0.100898765
236	0xbe424710	-0.1897242
237	0xbe33d602	-0.17562106
238	0xbdb123ce	-0.08649407
239	0xbd0ae77a	-0.03391216
240	0x3de35005	0.11099247
241	0xbe41dff4	-0.18933088
242	0xbd541c19	-0.05178461
243	0xbd367070	-0.044540823
244	0xbdf9a7b7	-0.12190192
245	0x3e881eff	0.26586148
246	0x3e7fa952	0.24966934
247	0xbc0ddcb3	-0.008658576
248	0x3d9372ef	0.07199656
249	0xbdb28c61	-0.087181814
250	0xbe224ee6	-0.1585041
251	0xbe6c9b48	-0.2310611
252	0x3de59e7c	0.11211869
253	0x3e868575	0.26273695
254	0xbe51f000	-0.20501709
255	0xbe05f791	-0.1308272
