audio/models/RAT_emobase2010_2FC__Arousal_Audio.pth (torch_old, 861798 bytes, 4 tensors)

reduced_rgb.weight f4 [128, 1582]
0	0xba2403b2	-0.0006256654
1	0xbaa181a1	-0.0012321958
2	0xbc4a1f6d	-0.012336594
3	0x3b41429d	0.0029489168
4	0xbc6930f3	-0.014232862
5	0xbc1ade7d	-0.009452459
6	0xbb8338c8	-0.0040045716
7	0xbb780a64	-0.003784799
8	0x3bb2f036	0.0054607643
9	0xbac44cdf	-0.0014976523
10	0xbc90a168	-0.01765509
11	0xbc7104f1	-0.014710651
12	0xbc3b0d5e	-0.011416761
13	0xbb14ea44	-0.002272264
14	0x3adb3b1a	0.0016725988
15	0x3abd3087	0.0014434018
16	0xbc9e20bb	-0.019302716
17	0xbc6bc4c0	-0.014390171
18	0xbbc5f83e	-0.0060415557
19	0xb9643520	-0.00021763565
20	0xbacdbc8d	-0.0015696451
21	0x38f461c0	0.00011653034
22	0x392d3d1a	0.00016521328
23	0x3ba1273f	0.0049180086
24	0x3a66b74f	0.0008801119
25	0x3b1139b3	0.0022159636
26	0xbabd33a7	-0.0014434949
27	0x36da2e9f	6.5023337e-06
28	0xbadfe295	-0.0017081077
29	0xbaa7c45e	-0.0012799611
30	0xba2a9b99	-0.0006508171
31	0x3b8be42e	0.0042691445
32	0x3b93ef2e	0.0045145964
33	0x3b82790a	0.003981714
34	0xbb80a5d7	-0.0039260196
35	0xbb200ff3	-0.002442357
36	0xbb3946b6	-0.0028270907
37	0x3baad77f	0.0052136774
38	0x3b0baeab	0.0021313827
39	0xbb331638	-0.0027326476
40	0xbaa84347	-0.0012837433
41	0xb9a5c723	-0.0003161962
42	0x3b01bd7b	0.0019796777
43	0xbac8558b	-0.0015284283
44	0x3bbafe37	0.0057065743
45	0xbad12477	-0.0015956302
46	0x3c2c2ece	0.010509206
47	0xb9a1d049	-0.00030863498
48	0x3aea49e8	0.0017874809
49	0x3a3d1f5d	0.00072144513
50	0xbadffbf9	-0.0017088644
51	0xba260743	-0.00063334795
52	0x3b94522f	0.0045263986
53	0x3b979575	0.004625971
54	0x3bd98204	0.0066378135
55	0xbb0bba28	-0.0021320675
56	0xba7d5634	-0.00096640293
57	0xb9818648	-0.00024704845
58	0x3b82906f	0.003984503
59	0x3bda704b	0.0066662184
60	0x3ab2e6ab	0.0013649067
61	0x3a25d219	0.00063255575
62	0x39445f1b	0.00018727446
63	0xb9ed633f	-0.00045278107
64	0xb8d31a52	-0.000100661666
65	0x3bc6f8af	0.006072126
66	0xbb99ac72	-0.0046897465
67	0xbb1c5b02	-0.0023857956
68	0x3b043256	0.0020171604
69	0x3ab69304	0.0013929312
70	0x3b36db64	0.0027901763
71	0x38e3307b	0.00010833234
72	0x3a06f47c	0.00051481253
73	0x3bd5d767	0.006525922
74	0x3b76dbe9	0.0037667698
75	0xba6352de	-0.0008671711
76	0xba9bde62	-0.0011891837
77	0x3aaa4dad	0.001299312
78	0x3b1c7d10	0.0023878254
79	0x3be5d575	0.0070139715
80	0x3a486a01	0.00076451903
81	0x3b4a6dff	0.0030888317
82	0xbabe59dd	-0.0014522631
83	0xba708fc8	-0.00091766985
84	0xba189171	-0.00058200123
85	0xbad6aa4f	-0.001637766
86	0x3a21c1d1	0.00061705435
87	0x3b36c45e	0.002788804
88	0x3b2f785c	0.002677462
89	0xb93f2dcb	-0.00018232239
90	0x398ebcf6	0.00027225137
91	0x3b0cf63b	0.002150907
92	0xba4228b8	-0.000740658
93	0xba9b26b2	-0.0011837094
94	0x38fd8953	0.00012089559
95	0x39e94c97	0.00044498287
96	0x3b1dc6e2	0.0024074842
97	0x3989fb4f	0.00026317916
98	0xbaf3267d	-0.0018550899
99	0xba8279c0	-0.0009954497
100	0xbb3bc4aa	-0.0028651156
101	0x3bc32723	0.005955593
102	0x3ab45e14	0.0013760948
103	0xba8976d8	-0.0010487689
104	0xb9d91a64	-0.00041409128
105	0x3a051f89	0.00050782465
106	0x3933e970	0.00017157733
107	0xbacd508b	-0.0015664262
108	0xba589f37	-0.0008263471
109	0x3ab95f05	0.0014142698
110	0x3b098f2d	0.002098988
111	0x3b540dc0	0.0032356828
112	0x3aa95fe8	0.0012922259
113	0xbac5171c	-0.0015036794
114	0x399bacad	0.00029692557
115	0xb9270e27	-0.00015931633
116	0x38e90fc6	0.00011113244
117	0xba60f5d9	-0.0008581556
118	0x3af141e4	0.0018406478
119	0x39d90ec0	0.00041400455
120	0x3aab840d	0.0013085619
121	0xba56ebd3	-0.00081985927
122	0xbbc8edc2	-0.0061318586
123	0x3aae6f0a	0.0013308239
124	0xbac193b8	-0.0014768755
125	0xb5e6078c	-1.7138532e-06
126	0xba6aa78b	-0.00089513574
127	0xb74e2280	-1.22865895e-05
128	0x3a192eee	0.000584348
129	0xbc093044	-0.008373324
130	0x3b8d8ef0	0.004320018
131	0x3a5b2a0a	0.00083604513
132	0xbb14440c	-0.0022623567
133	0x3aa5dfc6	0.0012655191
134	0xbaba6b0f	-0.001422258
135	0xba8b7c8a	-0.0010641974
136	0xbac88283	-0.0015297685
137	0x3a9a04f8	0.0011750748
138	0xb9af471d	-0.00033431585
139	0xb9c9636f	-0.0003841179
140	0xbaf37cc7	-0.0018576615
141	0xb8316e0c	-4.2302578e-05
142	0xbb9a4fcc	-0.0047092196
143	0xbb1165fb	-0.002218603
144	0xb8d62918	-0.000102119695
145	0x39086fcf	0.00013011623
146	0xb95f3ebb	-0.00021290306
147	0x3a856b46	0.0010179065
148	0xba3e5d92	-0.0007261868
149	0xbbb1fcb7	-0.0054317373
150	0x3b950daa	0.004548748
151	0xbc031cfd	-0.008002517
152	0x3ad987fe	0.0016596315
153	0x3a76db77	0.0009416858
154	0x3ab5ad34	0.0013860823
155	0x3aff66f6	0.0019485641
156	0x3a6c2e4a	0.0009009583
157	0xbbc491e9	-0.005998839
158	0xbbda31a3	-0.006658749
159	0xbb4d3661	-0.003131293
160	0xba6f5556	-0.00091298425
161	0xbaaf363f	-0.0013367607
162	0x3a426116	0.00074149796
163	0xbbaab198	-0.005209159
164	0x3a40a381	0.0007348583
165	0x3b93ea6e	0.00451403
166	0xb7c930ca	-2.3983786e-05
167	0x3a004580	0.0004893169
168	0xba8e037e	-0.0010834781
169	0x3a814871	0.0009863508
170	0xba96417b	-0.0011463606
171	0xbb2928e4	-0.0025811726
172	0xbb06422b	-0.0020486217
173	0x3b8ce3a9	0.0042996
174	0x3b55e917	0.0032640153
175	0xb8d1297f	-9.973626e-05
176	0x3abe94ec	0.0014540232
177	0xb9cf70d2	-0.00039566174
178	0xbb110a40	-0.0022131354
179	0xbb1218c6	-0.0022292598
180	0x3a4a8953	0.00077261514
181	0xbb4d5011	-0.003132824
182	0xbb6bfcc7	-0.0036008821
183	0xbb130254	-0.0022431808
184	0xbb5cc79a	-0.0033688308
185	0x3b30552d	0.0026906237
186	0x3b940896	0.004517625
187	0x3a49309b	0.0007674784
188	0xba17b78a	-0.00057875423
189	0x3ad94d2c	0.0016578785
190	0xbb06c64b	-0.002056497
191	0x3a85b317	0.0010200468
192	0xbb8d8820	-0.004319206
193	0x3b102fb3	0.0022001087
194	0x3a73250e	0.0009275236
195	0x3b1e6baf	0.002417307
196	0x3a928540	0.0011178628
197	0xb9835728	-0.00025051204
198	0x3b0e615f	0.0021725518
199	0x38dd2d91	0.000105465886
200	0x3a9d7491	0.0012012889
201	0x3b0dfab9	0.0021664335
202	0xb98050cd	-0.00024474264
203	0x39777b6a	0.00023601731
204	0x3aafbbac	0.0013407371
205	0x3b07b9d3	0.0020710125
206	0x3aa28c49	0.0012401427
207	0x3b748d85	0.0037315798
208	0xbb1f5b8e	-0.0024316045
209	0xb93d06cd	-0.00018026978
210	0xb9c473a4	-0.00037470192
211	0xb9945f1b	-0.0002829962
212	0xbbd92e91	-0.0066278656
213	0x3a1d40a9	0.000599871
214	0x3bbe91f0	0.005815737
215	0xbb4b522d	-0.0031024322
216	0xba2960d9	-0.000646127
217	0xba5358ed	-0.0008062262
218	0xba023e22	-0.0004968365
219	0x3b35a1f5	0.0027714942
220	0xbb5f21be	-0.0034047212
221	0xbb92c4ac	-0.0044790115
222	0xbb98ae21	-0.0046594297
223	0x37f44aae	2.9121842e-05
224	0x39cfe97f	0.00039656085
225	0x3875f7ec	5.8643447e-05
226	0xbbf037cc	-0.0073308703
227	0xba9c1cc1	-0.0011910425
228	0xbafd5dec	-0.0019330359
229	0xbabad48e	-0.001425402
230	0x3a4dc803	0.00078499335
231	0x3a45bafe	0.00075428176
232	0x3968a81f	0.00022187874
233	0xbb58872e	-0.0033039558
234	0xbb94708b	-0.0045300177
235	0xb847e678	-4.7659938e-05
236	0x3a4c2453	0.0007787395
237	0x38f7a479	0.00011808513
238	0x3b152a9e	0.0022760998
239	0x3990340d	0.000275046
240	0x3983e967	0.00025160165
241	0xbb2e7b87	-0.002662392
242	0xbb867454	-0.004103223
243	0x3b077bf6	0.0020673252
244	0xbb47712a	-0.0030432441
245	0x39d1f878	0.0004004871
246	0x3ab990ec	0.001415757
247	0xbb3771ed	-0.002799149
248	0x3ade276a	0.0016949002
249	0x3ac07ec4	0.0014686217
250	0xba326eca	-0.000680667
251	0xbafd31f5	-0.0019317257
252	0xba02d9b4	-0.0004991547
253	0x3ab0c7ec	0.0013487316
254	0x3bdce10f	0.0067406963
255	0x3b232d87	0.0024898963

fc1.weight f4 [64, 128]
0	0xbb518bb1	-0.0031974132
1	0x3c348c0c	0.011019718
2	0x3aa5e3d5	0.00126564
3	0x3c5c2a00	0.013437748
4	0xbc218ca1	-0.009860189
5	0x3c8eabff	0.017415999
6	0xbaca4cde	-0.0015434285
7	0x3a09f414	0.0005262506
8	0xbcccca44	-0.024998792
9	0xbc2caf99	-0.010539913
10	0xbc7a5ac4	-0.015280429
11	0xbc7ea1d8	-0.015541516
12	0x3bbce81b	0.005764974
13	0xbc9539d6	-0.018216055
14	0xbb1f4058	-0.0024299826
15	0x3c647de5	0.013946031
16	0x3b8c8311	0.0042880853
17	0x3b5e6819	0.0033936559
18	0x3b73549d	0.003712929
19	0xbbd8baf2	-0.0066140825
20	0xbb85c9e2	-0.004082904
21	0xbc7738aa	-0.015089193
22	0x3b84f171	0.0040571024
23	0xbc6630f0	-0.014049754
24	0x3c991865	0.01868839
25	0xbcaa763b	-0.02080833
26	0x388380ff	6.270594e-05
27	0x3bb7a570	0.0056044385
28	0x3c823a4d	0.01589694
29	0x3c762887	0.015024311
30	0x3b17311f	0.002307005
31	0x3ba8fa45	0.0051567876
32	0x3c78b4cc	0.015179824
33	0x3d2ed74c	0.04268579
34	0x3c1cc8c8	0.009569354
35	0xbc736fb0	-0.014858171
36	0x3c2a4a0c	0.010393631
37	0xbb94cd70	-0.0045410916
38	0x3ca7bf18	0.020476863
39	0xbb7683ed	-0.0037615255
40	0xb78e1cff	-1.6941221e-05
41	0x3ca2a033	0.01985178
42	0xbb24b3e1	-0.002513163
43	0xb9f19259	-0.0004607614
44	0xbb97ee03	-0.0046365275
45	0x3c9d090b	0.019169351
46	0xbb34d1c5	-0.0027590853
47	0x3b82992e	0.0039855456
48	0x3c4a1707	0.012334592
49	0xba029e47	-0.00049826916
50	0xbc098d56	-0.0083955135
51	0x3b2c4fc6	0.0026292666
52	0x3ca143f9	0.019685732
53	0xbd0ed479	-0.0348706
54	0xbc2a8f20	-0.0104101
55	0xb9963c73	-0.00028655268
56	0xbd008846	-0.03137996
57	0x3bad340a	0.0052857446
58	0x3ba73570	0.005102806
59	0xbb500a5a	-0.0031744451
60	0x3d04a1f8	0.032381028
61	0x3cfd6236	0.03093062
62	0xbcaac646	-0.020846497
63	0x3cc2e332	0.023789976
64	0xbc4b9bd5	-0.01242729
65	0xbc48d0ad	-0.012256783
66	0x3c974b6f	0.018468587
67	0x3d175c00	0.036952972
68	0x3c95ee1e	0.01830202
69	0x38c94d10	9.598781e-05
70	0xbbe7acdd	-0.0070701675
71	0x3c4a1d51	0.012336091
72	0x3c45c6aa	0.012071291
73	0xbca624c1	-0.020281198
74	0xbcb6b58b	-0.022303363
75	0xbc9d70fa	-0.01921891
76	0x3c9b4467	0.018953515
77	0xbca04e2a	-0.019568522
78	0xbc82b8ff	-0.015957354
79	0x3c207fef	0.009796127
80	0xbc54760c	-0.012967598
81	0xbca4a8b1	-0.02009997
82	0xba62e750	-0.0008655684
83	0x3c5c2881	0.013437391
84	0xbc576f64	-0.013149116
85	0x3c95d7ba	0.018291343
86	0x3bb3f56c	0.005491903
87	0x3c8255e4	0.015910096
88	0xbd0d4ef3	-0.03449912
89	0xbc956cc7	-0.018240346
90	0xbd073be3	-0.033016097
91	0xbb44a3b4	-0.0030004801
92	0xbc30f963	-0.010801646
93	0xbbf5b566	-0.007498431
94	0xbc89c746	-0.016818654
95	0xbc8ad0ee	-0.016945329
96	0x3cf86268	0.030320361
97	0xbc076073	-0.008262741
98	0x3cb1fd1c	0.021727137
99	0xbb56a643	-0.0032752908
100	0x3cdba618	0.026812598
101	0x3a9719e8	0.0011528106
102	0x3d03fdea	0.032224573
103	0x3c821d17	0.015883012
104	0x3d06f1a7	0.0329453
105	0x3c89bcf6	0.016813736
106	0x3bf63cb5	0.007514561
107	0x3bdebef4	0.0067976657
108	0xb9b7d202	-0.00035060948
109	0xbca4a1b0	-0.02009663
110	0x3ca25a3c	0.019818418
111	0x3c16b405	0.009198193
112	0x3c65081e	0.013978986
113	0x3c31648c	0.010827195
114	0xbcc95f2f	-0.02458152
115	0x3ca193ef	0.01972386
116	0xbc1714af	-0.00922124
117	0xbc094150	-0.008377388
118	0xbd2a0de8	-0.04151717
119	0xbc223c00	-0.009902
120	0xbb64597c	-0.0034843376
121	0x3cd31330	0.025765985
122	0x3c2fe440	0.010735571
123	0x3be2e622	0.0069244066
124	0xbbd4e402	-0.006496907
125	0xbd2dc3f8	-0.04242322
126	0xbbcf4d7d	-0.006326376
127	0xbcd724f3	-0.026262736
128	0x3ce2529c	0.027627282
129	0xbcade548	-0.021227494
130	0xbc7b27de	-0.015329329
131	0xb9e5399d	-0.0004372121
132	0x3cfe56fc	0.031047337
133	0x3cb06f1f	0.021537362
134	0xbc79bdc6	-0.015242999
135	0x3c9a3bc7	0.018827332
136	0x3d8071be	0.062716946
137	0x3d4eb38a	0.05046419
138	0x3c25d368	0.010121204
139	0x3d052d42	0.032513864
140	0xbd2d9242	-0.04237581
141	0x3dcc1dba	0.099666074
142	0x3d46bd1a	0.048520185
143	0x3c2b18f3	0.01044296
144	0x3d49357e	0.04912328
145	0x3c2f07d8	0.010683022
146	0xbd4fe367	-0.050753977
147	0xbd1f969e	-0.038962
148	0xbcd800ee	-0.02636763
149	0x3cd40c50	0.025884777
150	0x3c489093	0.0122415
151	0x3db026b4	0.08601132
152	0xbdf8b7b0	-0.121444106
153	0x3d6a7646	0.0572417
154	0xbc866abc	-0.016408317
155	0xbd940bc7	-0.07228809
156	0xbd9729c1	-0.07381011
157	0x3c33dec8	0.010978408
158	0xbc8c78f8	-0.017147526
159	0x3cf2f3f4	0.029657342
160	0xbd3e40e7	-0.046448614
161	0xbd1a7c84	-0.037716404
162	0xbd122689	-0.03568128
163	0xbd213a7d	-0.03936242
164	0x3c839df2	0.016066525
165	0xbcf2ec31	-0.02965364
166	0xbcf2b84b	-0.029628893
167	0x3cf0429b	0.029328635
168	0x3d286c30	0.0411188
169	0xbd1484c6	-0.036259435
170	0xbca041d7	-0.019562645
171	0xbd999e78	-0.07500929
172	0xbcb62ff5	-0.022239665
173	0xbd933de0	-0.07189536
174	0x3c349cfb	0.011023755
175	0xbd3164ec	-0.043309137
176	0xbd8668b0	-0.06562936
177	0x3cec223d	0.02882492
178	0x3d7bf5da	0.06151376
179	0xbcbdf841	-0.023189666
180	0x3d5a76c3	0.053335916
181	0x3d041668	0.03224793
182	0x3d3d0e1d	0.046156038
183	0xbcb53ee2	-0.022124711
184	0x3dc18ebc	0.094510525
185	0xbd2f258f	-0.042760428
186	0xbd0f4c8f	-0.03498512
187	0x3d340e36	0.043958865
188	0xbcb43afd	-0.022000784
189	0xbdd9760c	-0.10618219
190	0x3d7a2087	0.061066177
191	0xbe236b29	-0.15958847
192	0x3c2f07a0	0.01068297
193	0x3b376b72	0.0027987626
194	0xbb0d6a7d	-0.0021578365
195	0xbc8a891d	-0.016911084
196	0x3cff491a	0.031162787
197	0xbc8e313e	-0.017357465
198	0xbd416c7d	-0.047222603
199	0x3cf692b4	0.03009925
200	0xbd1f9c1c	-0.038967237
201	0xb9c2747b	-0.00037089348
202	0x3d4fb0d8	0.05070576
203	0x3d5e30f6	0.05424591
204	0xbcdbf264	-0.02684898
205	0x3cdf7ef9	0.027282225
206	0x3cb48b3b	0.022039047
207	0xbd02a14a	-0.0318921
208	0xbc3d05a8	-0.011536993
209	0x3cd2da73	0.02573893
210	0xbb6ce25e	-0.0036145668
211	0xbddf750e	-0.10910998
212	0x3d4abb89	0.049495254
213	0xbda2e1a3	-0.07953193
214	0xbc7fd645	-0.015615051
215	0x3c2b2909	0.010446795
216	0x3d275ec5	0.040861864
217	0x3ba2348e	0.0049501127
218	0x3d135efd	0.03597926
219	0xbc138278	-0.009003274
220	0x3c7a53b6	0.015278747
221	0x3d58bd31	0.052914802
222	0x3d984e54	0.07436815
223	0xbc41134f	-0.011784389
224	0xbde37a1a	-0.111072734
225	0xbc1e3cc6	-0.009658044
226	0xbd900763	-0.07032659
227	0x3dea23e1	0.114326246
228	0x3c3edcc5	0.011649315
229	0x3aa13935	0.0012300374
230	0x3b2e03f2	0.0026552645
231	0xbcdab974	-0.026699759
232	0x3d0125a7	0.03153005
233	0xbd568b7e	-0.052379124
234	0x3c4d7261	0.012539477
235	0xbc81e59d	-0.015856558
236	0xbd441634	-0.047872737
237	0x3d90bd77	0.070673876
238	0xbd30fe43	-0.043211233
239	0x3754cc00	1.2683682e-05
240	0x3d87d03a	0.06631513
241	0xbce1123c	-0.027474515
242	0xbcc6421d	-0.024201447
243	0xbca69dd7	-0.020338936
244	0xbd237aa9	-0.0399119
245	0x3d24ee7d	0.040266503
246	0x3d50e071	0.050995294
247	0x3d885dd4	0.06658521
248	0xbdc863ea	-0.09784682
249	0xbb9ee073	-0.004848534
250	0xbd063d12	-0.032773085
251	0xbc4d0ee2	-0.012515755
252	0xbd9c4423	-0.076301835
253	0x3ddbf3b3	0.10739841
254	0xbad1aa52	-0.0015996194
255	0x3dced257	0.10098713

fc2.weight f4 [64, 64]
0	0x3ced47da	0.028964926
1	0x3d258914	0.04041393
2	0x3d1c673d	0.038184393
3	0x3c557090	0.013027325
4	0x3b28a495	0.0025732864
5	0x3ca97a45	0.020688185
6	0x3d052838	0.03250906
7	0x3c49bf12	0.012313621
8	0xbdf18c79	-0.11794371
9	0xbd95f31c	-0.0732176
10	0xbd7d48a7	-0.061836865
11	0x3b2be3d3	0.0026228323
12	0xbd28f526	-0.041249417
13	0x3c76fae7	0.015074468
14	0xbdb3b877	-0.08775418
15	0xbcd9bbdf	-0.026578842
16	0x3bd8aaee	0.0066121733
17	0xbd13e0e6	-0.03610315
18	0xbd89f2c9	-0.06735761
19	0xbd8054d1	-0.062661774
20	0xbbe36836	-0.006939913
21	0x3d375816	0.04476174
22	0x3d35dbbc	0.04439901
23	0x3b37aa1a	0.0028024972
24	0x3d97f1d2	0.074191704
25	0xbb46b8a6	-0.0030322461
26	0x3d7b2c81	0.06132174
27	0xbd5cc4f3	-0.053898763
28	0xbd49eb5f	-0.049296733
29	0xbe065f83	-0.13122372
30	0x3d7a302a	0.06108109
31	0xbb8e0486	-0.0043340353
32	0xbdce2690	-0.10065949
33	0xbc42c201	-0.011887074
34	0x3d6313a4	0.055438653
35	0xbcff07e4	-0.031131692
36	0x3d8a3891	0.067490704
37	0xbdc280ed	-0.09497247
38	0x3ce6b4c8	0.028162375
39	0x3da95a84	0.082692176
40	0xbdf36e2c	-0.11886248
41	0x3cee287a	0.029072035
42	0x3db06dd1	0.08614696
43	0x3c022adc	0.007944789
44	0x3d6859be	0.05672621
45	0x3da4fa67	0.08055573
46	0x3c092ad9	0.008372032
47	0xbd7a05f5	-0.061040837
48	0x3bf90774	0.0075997654
49	0xbdd597af	-0.10429322
50	0xbd212554	-0.03934224
51	0x3d8bbe46	0.06823401
52	0xbd9afd2f	-0.07567822
53	0x3d1c5945	0.03817107
54	0x3c075105	0.008259063
55	0xbc4ff8eb	-0.012693624
56	0xbd69a480	-0.057041645
57	0xbd58a0d9	-0.05288777
58	0xbc0cfe12	-0.008605497
59	0x3b1531e2	0.0022765328
60	0xbcbaf775	-0.022823075
61	0xbc0483e5	-0.008088087
62	0xbcba0102	-0.022705559
63	0x3b3903f8	0.0028231125
64	0xbc8fa770	-0.017535895
65	0x3e07481e	0.13211104
66	0xbb149525	-0.0022671905
67	0xbca648e4	-0.020298429
68	0xbccf9ddc	-0.025343828
69	0x3c832f9b	0.016013911
70	0x3d12d290	0.03584534
71	0xbd02c276	-0.031923734
72	0xbdb08105	-0.086183585
73	0xbdb18891	-0.08668626
74	0xbcc6e861	-0.024280729
75	0xbd272c79	-0.040813897
76	0x3adf99b2	0.0017059355
77	0x3cf996a8	0.030467346
78	0xbcd28553	-0.02569834
79	0x3cce4077	0.025177224
80	0x3d98df15	0.074644245
81	0xbd9b196c	-0.07573208
82	0xbdacf6d4	-0.08445516
83	0x3be830ec	0.00708591
84	0xbd1e79ca	-0.038690366
85	0x3d12adb5	0.03581019
86	0x3db27f2c	0.08715662
87	0xbc78e756	-0.015191874
88	0x3d31dd8d	0.043424178
89	0xbd6c9b54	-0.05776532
90	0x3cb8c220	0.022553504
91	0xbd89f2cc	-0.06735763
92	0xbd7ceb92	-0.061748095
93	0xbe0c8a6c	-0.13724679
94	0x3ce13772	0.027492259
95	0x3d867dc6	0.06566958
96	0xbd9bc899	-0.0760662
97	0xbd3e5fd1	-0.046478096
98	0x3de30ddd	0.110866286
99	0xbcd522c2	-0.02601755
100	0x3c4b2936	0.012399962
101	0xbc5fcc65	-0.013659571
102	0xbc3d2afb	-0.011545892
103	0x3c77a588	0.015115149
104	0xbda3bb97	-0.07994764
105	0xbb1eae0d	-0.002421263
106	0x3d55b095	0.052170355
107	0xbdc5704a	-0.09640558
108	0x3dfb52b8	0.12271637
109	0xbc8dfd40	-0.017332673
110	0xbcbe677b	-0.023242703
111	0xbda7a4b0	-0.081857085
112	0xbcad2da6	-0.021139931
113	0xbd8dcd9c	-0.069239825
114	0x3b4b3269	0.0031005389
115	0x3d97e57a	0.07416816
116	0xbc8333d2	-0.01601592
117	0x3cdb308a	0.026756544
118	0xbc041c07	-0.008063323
119	0x3d92f15b	0.07174941
120	0x3d21d27a	0.039507367
121	0xbc94b41a	-0.018152285
122	0x3d2a15cb	0.04152469
123	0x3d198c7a	0.037487485
124	0xbd9128e1	-0.07087875
125	0x3b89fefe	0.0042113056
126	0xbd245940	-0.040124178
127	0xbd40489e	-0.046944253
128	0xbd44df8e	-0.04806476
129	0x3e24d95b	0.1609854
130	0xbd27b96c	-0.040948316
131	0xbd075c07	-0.03304675
132	0xbcf44ec3	-0.029822713
133	0x3c3e8a39	0.011629635
134	0x3ca5d7ef	0.020244567
135	0xbd4b4dc3	-0.049634706
136	0xbd16738f	-0.0367313
137	0xbd6f36dd	-0.05840193
138	0x3c452494	0.012032647
139	0xbd76a38d	-0.060214568
140	0x3cf01eda	0.029311586
141	0x3d008b16	0.031382643
142	0x3d05a5a2	0.032628663
143	0x3d6f65f1	0.05844683
144	0x3ddd8975	0.108172335
145	0xbdaac1f5	-0.083377756
146	0xbd922382	-0.07135679
147	0x3d60f2aa	0.054918922
148	0xbd191ad3	-0.037379097
149	0x3c94572a	0.01810797
150	0x3dc10854	0.094254166
151	0xbc96fbc3	-0.018430596
152	0x39344d56	0.00017194948
153	0xbdb8e1b9	-0.09027428
154	0xbc6796a6	-0.0141350385
155	0xbd55c185	-0.052186508
156	0xbd5a0548	-0.053227693
157	0xbdcce955	-0.10005442
158	0xba4133d0	-0.00073700864
159	0x3dbbc94c	0.09169254
160	0xbd15d09d	-0.036575902
161	0xbd61cff2	-0.055129953
162	0x3df17675	0.11790172
163	0xbb4c48ea	-0.003117139
164	0xbcaf118d	-0.021370674
165	0x3d3ae457	0.045627918
166	0xbd33bc88	-0.04388097
167	0xbd3b0f80	-0.04566908
168	0xbcd4122e	-0.025887575
169	0xbce6027d	-0.028077358
170	0x3c24160c	0.010015022
171	0xbe10a690	-0.14126039
172	0x3e03228e	0.1280615
173	0xbdb2f118	-0.08737391
174	0xbd215902	-0.039391525
175	0xbd7367a8	-0.059425026
176	0xbd17da55	-0.037073452
177	0xbc9d2765	-0.019183824
178	0x3cc14fb5	0.023597578
179	0x3d4b08dc	0.049568996
180	0x3d1a45d5	0.037664253
181	0x3c9ff277	0.019524796
182	0xbc2a756c	-0.010403972
183	0x3dd5447c	0.10413453
184	0x3dcb1792	0.09916605
185	0x3c9908b5	0.01868091
186	0x3d87354a	0.06601961
187	0x3d6c231b	0.057650667
188	0xbdbd62ff	-0.09247398
189	0x3c2a8699	0.010408067
190	0xbd28d2a7	-0.04121652
191	0xbd7f8366	-0.06238117
192	0xbcabf567	-0.02099104
193	0xbcc7ebc1	-0.024404408
194	0xbcfa3081	-0.030540707
195	0xbc0cddce	-0.008597804
196	0x3b2f5b45	0.0026757282
197	0xbc0935f2	-0.008374678
198	0xbcbe3f1b	-0.02322345
199	0xbc2d6d8d	-0.010585201
200	0x3dcb7e1e	0.09936164
201	0x3d80fb68	0.06297952
202	0x3d4179f0	0.04723543
203	0xbc1762bb	-0.009239848
204	0x3cfb6587	0.03068806
205	0xbc397f7b	-0.011321898
206	0x3d9578de	0.07298444
207	0x3cada734	0.021197893
208	0x399580ac	0.00028515363
209	0x3d116414	0.035495833
210	0x3d453e62	0.048155196
211	0x3d2d2fba	0.042281844
212	0x3bd4d025	0.0064945393
213	0xbd04310d	-0.03227334
214	0xbd212760	-0.03934419
215	0x3b81011a	0.003936899
216	0xbd59e02c	-0.053192303
217	0xba62eb90	-0.00086563174
218	0xbd64e509	-0.055882487
219	0x3d48ff8b	0.04907183
220	0x3d29f178	0.04149005
221	0x3dcdde02	0.1005211
222	0xbd3c40e3	-0.04596032
223	0xba09fc98	-0.00052637747
224	0x3daf1627	0.08549147
225	0x3c6c091f	0.0144064715
226	0xbd425750	-0.04744655
227	0x3cf1107b	0.029426804
228	0xbd56ee8e	-0.052473597
229	0x3da05442	0.07828571
230	0xbcbd7388	-0.023126379
231	0xbd8e2537	-0.06940692
232	0x3dcc5b02	0.09978296
233	0xbc939a7e	-0.018018004
234	0xbd8f8ec7	-0.070096545
235	0xbbb215ad	-0.005434713
236	0xbd387b4c	-0.04503946
237	0xbd809e7b	-0.06280228
238	0xbc05e1e8	-0.008171536
239	0x3d52101a	0.051284887
240	0xbb2bfd88	-0.0026243646
241	0x3daf7fde	0.085693106
242	0x3ced9a55	0.029004255
243	0xbd6e4786	-0.05817368
244	0x3d74358d	0.059621383
245	0xbd165047	-0.036697652
246	0xbc146f4d	-0.009059739
247	0x3c25cafc	0.010119196
248	0x3d323465	0.043507
249	0x3d2b3f41	0.04180837
250	0x3c1d07ed	0.009584409
251	0xbbb2a4b2	-0.005451762
252	0x3c1be8ac	0.0095159225
253	0x3ab765c8	0.0013992125
254	0x3c80c5a7	0.015719248
255	0x3bbf1d39	0.005832341

class_dim.weight f4 [7, 64]
0	0x3e162b39	0.14664926
1	0x3eb75a19	0.35810927
2	0x3ecb11a0	0.39661884
3	0xbdf0bd67	-0.11754876
4	0x3e8d395d	0.27582827
5	0xbe21f80f	-0.15817283
6	0x3c8b529c	0.017007165
7	0xbcdba7d4	-0.026813425
8	0x3ea4b3ef	0.32168528
9	0xbe742f34	-0.23846132
10	0xbd6587c0	-0.056037664
11	0x3dd4a85e	0.10383676
12	0xbd5000b3	-0.050781917
13	0x3e8ab3d2	0.27090317
14	0x3e7b8e84	0.24566084
15	0x3dbf0170	0.09326446
16	0xbe844d13	-0.25840053
17	0x3dc0c78c	0.094130605
18	0xbcbed7d7	-0.02329628
19	0x3d04982f	0.032371696
20	0xbd89cff7	-0.06729119
21	0xbdfa069a	-0.122082904
22	0xbec9d24a	-0.3941825
23	0x3db06540	0.08613062
24	0xbd478bbc	-0.048717245
25	0x3da3a7b4	0.07990971
26	0x3e449b4e	0.19199869
27	0x3a7eef73	0.0009725012
28	0x3dbcbeb8	0.09216064
29	0x3d864376	0.06555836
30	0xbe0b15c3	-0.1358252
31	0x3d1d9419	0.038471315
32	0x3caaa869	0.020832257
33	0xbd95c24a	-0.07312448
34	0x3eafacbc	0.34311473
35	0xbe4876aa	-0.19576517
36	0x3d613c2a	0.054989018
37	0xb9cbb59b	-0.00038854484
38	0x3ea4df51	0.32201627
39	0xbd851cea	-0.064996555
40	0xbdfd2005	-0.12359623
41	0xbe7a9cf5	-0.24473937
42	0xbccef045	-0.025261054
43	0xbe58fcc6	-0.21190175
44	0x3dafcbd5	0.085838
45	0x3e04a6a7	0.12954198
46	0x3d21a9f5	0.039468724
47	0xbeaba006	-0.33520526
48	0x3d91499f	0.0709412
49	0xbcd5c23f	-0.0260936
50	0xbde82fcc	-0.113372415
51	0x3d7e66dc	0.062109813
52	0x3dc0ba7c	0.09410569
53	0xbe38be8c	-0.18041438
54	0x3e13625e	0.14392993
55	0x3e0da15a	0.13831082
56	0xbe3b412d	-0.18286581
57	0xbf09b9b1	-0.5379897
58	0xbe4704bd	-0.19435401
59	0x3e45ab59	0.19303645
60	0x3ca64b8b	0.020299694
61	0xbd31a800	-0.043373108
62	0x3d3e960f	0.046529826
63	0x3e754d57	0.23955284
64	0x3e4c84e9	0.19972576
65	0x3ddaf3cd	0.106910326
66	0x3c105335	0.008808901
67	0xbe238aac	-0.15970868
68	0xbd3e7ccb	-0.04650573
69	0xbb96f8aa	-0.00460728
70	0xbd245389	-0.040118728
71	0xbc97799b	-0.018490603
72	0x3e990872	0.29889256
73	0xbca339dd	-0.019925052
74	0x3e104885	0.14090164
75	0x3d08abb3	0.03336687
76	0xbdf65695	-0.12028233
77	0x3e638426	0.2221838
78	0xbd158f50	-0.036513627
79	0x3ceb9d02	0.02876139
80	0xbd9d7a68	-0.07689363
81	0x3d8cb4cd	0.068704225
82	0xbe281f08	-0.16418087
83	0xbdf6a5c2	-0.120433345
84	0x3d3d5396	0.046222292
85	0x3daab3c9	0.083350725
86	0xbcdf33bf	-0.027246354
87	0xbd607376	-0.054797612
88	0x3e7519cd	0.23935623
89	0x3b94c149	0.004539643
90	0xbd49e9c8	-0.049295217
91	0xbad1e315	-0.001601311
92	0xbe08a26a	-0.13343206
93	0x3e00da4d	0.12583275
94	0xbd446e58	-0.047956795
95	0xbdecd35c	-0.11563751
96	0x3dcfbb8c	0.101431936
97	0x3dcd9536	0.10038225
98	0xb9c687c2	-0.0003786665
99	0xbd85b9a9	-0.065295525
100	0x3c2f566c	0.010701757
101	0x3d9df69b	0.07713052
102	0xbc2c0ecd	-0.010501576
103	0x3d319a59	0.043360088
104	0xbc9221f4	-0.017838456
105	0xbd854436	-0.06507151
106	0x3bd5126d	0.0065024407
107	0xbe281b74	-0.16416723
108	0x3d7b5682	0.061361797
109	0x3e084cbd	0.13310523
110	0xbd2e0704	-0.04248716
111	0x3bf95373	0.007608825
112	0x3d92bf17	0.07165354
113	0x3d9bf76b	0.076155506
114	0xbdf1bff6	-0.11804192
115	0xbdede425	-0.11615781
116	0x3d7b7198	0.06138763
117	0xbd81a512	-0.06330313
118	0x3d6fcf6a	0.058547415
119	0x3cdb9949	0.02680649
120	0x3d625894	0.055260256
121	0xbeab1b3e	-0.33419222
122	0xbe074af3	-0.13212185
123	0x3e14df89	0.14538397
124	0x3dea42ee	0.11438547
125	0x3dcebc3d	0.10094497
126	0xbd8da882	-0.06916906
127	0x3dd4680c	0.10371408
128	0x3e137afd	0.14402385
129	0xbc170082	-0.00921643
130	0xbe00bcd0	-0.12572026
131	0xbdeabf53	-0.114622734
132	0xbe06e53f	-0.13173388
133	0x3d48d6b5	0.049032886
134	0xbd31efbe	-0.043441527
135	0x3b23ff05	0.002502383
136	0x3e35c352	0.1775029
137	0x3d827297	0.063695125
138	0x3e1c9e98	0.15294874
139	0xbc0b9d5b	-0.008521403
140	0xbdc05bc7	-0.09392505
141	0x3e03dce2	0.12877229
142	0xbdef5c91	-0.116875775
143	0xbb96deeb	-0.0046042106
144	0x3bba993c	0.0056945365
145	0x3ceedace	0.029157069
146	0xbe0f6d9d	-0.14006658
147	0xbdfddcac	-0.123956054
148	0x3d94486f	0.07240378
149	0x3de4e2c5	0.11176065
150	0x3db1139e	0.0864632
151	0xbd93f5f9	-0.0722465
152	0x3e772eb9	0.24138917
153	0xbc885721	-0.016643109
154	0xbddfe5c7	-0.109324984
155	0xbb397a11	-0.0028301517
156	0xbe1c28ae	-0.15249893
157	0x3dc319f4	0.095264345
158	0x3bea06e5	0.007141935
159	0xbdf7a200	-0.12091446
160	0x3dae0d03	0.084985755
161	0x3de924ed	0.11383996
162	0xbde8d1e3	-0.11368158
163	0xbb8482e6	-0.0040439246
164	0xba7dbf7b	-0.0009679717
165	0x3d9ba92b	0.076006256
166	0xbdde7d9f	-0.10863804
167	0x3d7f1344	0.062274233
168	0x3cd118b0	0.025524467
169	0x3c996118	0.018723056
170	0x3cbf5aa1	0.023358645
171	0xbdbb4005	-0.0914307
172	0x3ce0f61c	0.027461104
173	0x3d9fdf28	0.078062356
174	0xbd5c59db	-0.05379663
175	0x3de24052	0.110474244
176	0x3d29cc3a	0.04145453
177	0x3dadc081	0.08483983
178	0xbda6498e	-0.08119498
179	0xbdf508c5	-0.11964563
180	0x3c886393	0.016649043
181	0xbadebfb7	-0.0016994391
182	0x3c8bb023	0.017051762
183	0xbc55ee53	-0.013057309
184	0x3de4c738	0.111708105
185	0xbe134b14	-0.14384109
186	0xbd8a5927	-0.06755286
187	0x3d89a6df	0.06721281
188	0x3dd4aff5	0.10385124
189	0x3deee7bd	0.11665294
190	0xbd929327	-0.07156973
191	0x3ced46d3	0.028964436
192	0x3d0f0897	0.0349203
193	0xbd9cd1b3	-0.076571845
194	0xbe061a26	-0.13095912
195	0xbcaa23ed	-0.020769084
196	0xbde3f28b	-0.11130246
197	0x3d640431	0.05566806
198	0xbc86e509	-0.016466634
199	0x3b2b9e8a	0.0026187026
200	0x3c3ff644	0.011716429
201	0x3d98ef15	0.07467476
202	0x3da70806	0.08155827
203	0xbcd0b6de	-0.025477823
204	0xbcc35e2c	-0.023848616
205	0xbc05e39d	-0.008171943
206	0xbdd409b9	-0.10353417
207	0xbc778968	-0.015108444
208	0x3d71c6a4	0.05902733
209	0xbc04042d	-0.008057636
210	0xbd7bd0b7	-0.061478343
211	0xbd581c40	-0.052761316
212	0x3d337ab0	0.043818176
213	0x3d9dbece	0.07702409
214	0x3df267f0	0.11836231
215	0xbd58428d	-0.052797843
216	0x3de7d6c9	0.11320264
217	0xbce73a2b	-0.028225979
218	0xbdac7c72	-0.084221736
219	0xbb818f89	-0.0039538783
220	0xbdb42df5	-0.08797828
221	0x3ce8a767	0.028400136
222	0x3d089a02	0.03335
223	0xbd7edda3	-0.062223088
224	0x3cff5fc4	0.031173594
225	0x3d90960a	0.07059868
226	0xbdf6d153	-0.12051644
227	0x3d0e2c2a	0.034710087
228	0xbc8a0b53	-0.016851103
229	0x3d103dc7	0.035215165
230	0xbdf3bb59	-0.11900968
231	0x3d183e7b	0.03716896
232	0x3d061ee5	0.032744307
233	0x3d59cd93	0.053174566
234	0x3c72c253	0.014816838
235	0x3baeba67	0.0053322795
236	0xbc42ba72	-0.011885272
237	0x3bb4a30d	0.005512601
238	0xbd181f74	-0.03713937
239	0x3de3116c	0.11087307
240	0x3b9cdf94	0.004787395
241	0x3d1e02e5	0.03857698
242	0xbbf8150b	-0.007570868
243	0xbd83ee3b	-0.06441923
244	0xbc3b2d17	-0.0114243245
245	0x3d1b9c9a	0.037991144
246	0xbca5a581	-0.02022052
247	0xbd080261	-0.033205394
248	0x3da170d3	0.07882848
249	0x3d3cb65b	0.046072345
250	0x3c5f4c51	0.013629035
251	0xbc1beadc	-0.009516444
252	0x3d065b3e	0.03280186
253	0x3d6b5697	0.057455625
254	0xbd28e2a4	-0.041231766
255	0xbd0798b7	-0.033104625
